…
s=False, source=None, split=val, stream_buffer=False, strict_match=True, task=detect, time=None, tracker=botsort.yaml, translate=0.1, use_multimodal_aug=True, val=True, verbose=True, vid_stride=1, visualize=False, warmup_bias_lr=0.1, warmup_epochs=3.0, warmup_momentum=0.8, weight_decay=0.0005, workers=4, workspace=None
Overriding model.yaml nc=80 with nc=16

                   from  n    params  module                                       arguments                     
MultiModal: router initialized
MultiModal: rgb=3ch, unknown=3ch, Fused=6ch
  0                  -1  1       928  ultralytics.nn.modules.conv.Conv             [3, 32, 3, 2]                 
  1                  -1  1     18560  ultralytics.nn.modules.conv.Conv             [32, 64, 3, 2]                
  2                  -1  1     31104  ultralytics.nn.modules.block.ELAN1           [64, 64, 64, 32]              
  3                  -1  1     73984  ultralytics.nn.modules.block.AConv           [64, 128]                     
  4                  -1  1    258432  ultralytics.nn.modules.block.RepNCSPELAN4    [128, 128, 128, 64, 3]        
  5                  -1  1    221568  ultralytics.nn.modules.block.AConv           [128, 192]                    
  6                  -1  1    579648  ultralytics.nn.modules.block.RepNCSPELAN4    [192, 192, 192, 96, 3]        
  7                  -1  1    442880  ultralytics.nn.modules.block.AConv           [192, 256]                    
  8                  -1  1   1028864  ultralytics.nn.modules.block.RepNCSPELAN4    [256, 256, 256, 128, 3]       
  9                  -1  1    164608  ultralytics.nn.modules.block.SPPELAN         [256, 256, 128]               
 10                  -1  1         0  torch.nn.modules.upsampling.Upsample         [None, 2, 'nearest']          
 11             [-1, 6]  1         0  ultralytics.nn.modules.conv.Concat           [1]                           
 12                  -1  1    628800  ultralytics.nn.modules.block.RepNCSPELAN4    [448, 192, 192, 96, 3]        
 13                  -1  1         0  torch.nn.modules.upsampling.Upsample         [None, 2, 'nearest']          
 14             [-1, 4]  1         0  ultralytics.nn.modules.conv.Concat           [1]                           
 15                  -1  1    283008  ultralytics.nn.modules.block.RepNCSPELAN4    [320, 128, 128, 64, 3]        
 16                  -1  1    110784  ultralytics.nn.modules.block.AConv           [128, 96]                     
 17            [-1, 12]  1         0  ultralytics.nn.modules.conv.Concat           [1]                           
 18                  -1  1    598080  ultralytics.nn.modules.block.RepNCSPELAN4    [288, 192, 192, 96, 3]        
 19                  -1  1    221440  ultralytics.nn.modules.block.AConv           [192, 128]                    
 20             [-1, 9]  1         0  ultralytics.nn.modules.conv.Concat           [1]                           
 21                  -1  1   1061632  ultralytics.nn.modules.block.RepNCSPELAN4    [384, 256, 256, 128, 3]       
 22        [15, 18, 21]  1   1569280  ultralytics.nn.modules.head.Detect           [16, [128, 192, 256]]         

Freezing layer 'model.22.dfl.conv.weight'
[34m[1mtrain: [0mFast image access ✅ (ping: 0.0±0.0 ms, read: 198.7±37.4 MB/s, size: 72.0 KB)
[34m[1mtrain: [0mScanning /dpc/yuanxiangqing/projects/detection/MutilModel_423/dataset/underwater/rgb/train/labels.cache... 4000 images, 0 backgrounds, 0 corrupt: 100%|██████████| 4000/4000 [00:00<?, ?it/s][34m[1mtrain: [0mScanning /dpc/yuanxiangqing/projects/detection/MutilModel_423/dataset/underwater/rgb/train/labels.cache... 4000 images, 0 backgrounds, 0 corrupt: 100%|██████████| 4000/4000 [00:00<?, ?it/s]
…
