…
s=False, source=None, split=val, stream_buffer=False, strict_match=True, task=detect, time=None, tracker=botsort.yaml, translate=0.1, use_multimodal_aug=True, val=True, verbose=True, vid_stride=1, visualize=False, warmup_bias_lr=0.1, warmup_epochs=3.0, warmup_momentum=0.8, weight_decay=0.0005, workers=4, workspace=None
Overriding model.yaml nc=80 with nc=16

                   from  n    params  module                                       arguments                     
MultiModal: router initialized
MultiModal: rgb=3ch, unknown=3ch, Fused=6ch
  0                  -1  1       928  ultralytics.nn.modules.conv.Conv             [3, 32, 3, 2]                 
  1                  -1  1     18560  ultralytics.nn.modules.conv.Conv             [32, 64, 3, 2]                
  2                  -1  1     29056  ultralytics.nn.modules.block.C2f             [64, 64, 1, True]             
  3                  -1  1     73984  ultralytics.nn.modules.conv.Conv             [64, 128, 3, 2]               
  4                  -1  2    197632  ultralytics.nn.modules.block.C2f             [128, 128, 2, True]           
  5                  -1  1     36096  ultralytics.nn.modules.block.SCDown          [128, 256, 3, 2]              
  6                  -1  2    788480  ultralytics.nn.modules.block.C2f             [256, 256, 2, True]           
  7                  -1  1    137728  ultralytics.nn.modules.block.SCDown          [256, 512, 3, 2]              
  8                  -1  1    958464  ultralytics.nn.modules.block.C2fCIB          [512, 512, 1, True, True]     
  9                  -1  1    656896  ultralytics.nn.modules.block.SPPF            [512, 512, 5]                 
 10                  -1  1    990976  ultralytics.nn.modules.block.PSA             [512, 512]                    
 11                  -1  1         0  torch.nn.modules.upsampling.Upsample         [None, 2, 'nearest']          
 12             [-1, 6]  1         0  ultralytics.nn.modules.conv.Concat           [1]                           
 13                  -1  1    591360  ultralytics.nn.modules.block.C2f             [768, 256, 1]                 
 14                  -1  1         0  torch.nn.modules.upsampling.Upsample         [None, 2, 'nearest']          
 15             [-1, 4]  1         0  ultralytics.nn.modules.conv.Concat           [1]                           
 16                  -1  1    148224  ultralytics.nn.modules.block.C2f             [384, 128, 1]                 
 17                  -1  1    147712  ultralytics.nn.modules.conv.Conv             [128, 128, 3, 2]              
 18            [-1, 13]  1         0  ultralytics.nn.modules.conv.Concat           [1]                           
 19                  -1  1    493056  ultralytics.nn.modules.block.C2f             [384, 256, 1]                 
 20                  -1  1     68864  ultralytics.nn.modules.block.SCDown          [256, 256, 3, 2]              
 21            [-1, 10]  1         0  ultralytics.nn.modules.conv.Concat           [1]                           
 22                  -1  1   1089536  ultralytics.nn.modules.block.C2fCIB          [768, 512, 1, True, True]     
 23        [16, 19, 22]  1   1651184  ultralytics.nn.modules.head.v10Detect        [16, [128, 256, 512]]         

Freezing layer 'model.23.dfl.conv.weight'
[34m[1mtrain: [0mFast image access ✅ (ping: 0.0±0.0 ms, read: 192.6±35.2 MB/s, size: 72.0 KB)
[34m[1mtrain: [0mScanning /dpc/yuanxiangqing/projects/detection/MutilModel_423/dataset/underwater/rgb/train/labels.cache... 4000 images, 0 backgrounds, 0 corrupt: 100%|██████████| 4000/4000 [00:00<?, ?it/s][34m[1mtrain: [0mScanning /dpc/yuanxiangqing/projects/detection/MutilModel_423/dataset/underwater/rgb/train/labels.cache... 4000 images, 0 backgrounds, 0 corrupt: 100%|██████████| 4000/4000 [00:00<?, ?it/s]
…
